history_models/model_0.pkl (torch, 188055 bytes, 20 tensors)

log_std f4 [2]
000000 00 00 00 00 00 00 00 00
       0.0 0.0

shared.0.weight f4 [128, 24]
000000 20 82 f5 bd 57 9c c4 3c 56 30 ec bd bd 8e 99 be
       -0.1198771 0.02400033 -0.11532657 -0.29991713
000010 dd 81 0e be f8 b4 25 be 71 20 3f be 97 47 92 3d
       -0.13916726 -0.16182315 -0.18664719 0.07142561
000020 a9 24 40 be d4 3b f5 3d 9d 9a ef 3d 0c 55 73 be
       -0.18763985 0.11974302 0.11699412 -0.23762912
000030 eb 9d 0e bb ca ec aa 3d 00 23 70 3e 68 fa 2c 3d
       -0.0021761607 0.08345945 0.23450851 0.042230994
000040 f0 8c 86 3c 4c b2 82 3c 1d f9 86 3d b3 50 0d 3e
       0.016424626 0.01595416 0.06590483 0.13800316
000050 8e f7 06 3e 4c 25 cf 3a 11 40 ab bc 2b 7d a4 3e
       0.13180372 0.0015803962 -0.020904573 0.32126746
000060 aa 31 94 3d 84 78 6a bd 28 91 75 bd 7c c3 13 be
       0.07236035 -0.05724384 -0.059952885 -0.1443004
000070 45 00 b5 bd 70 c9 e8 bd 2f 74 d9 3c 18 71 a8 bd
       -0.08837942 -0.11366546 0.026544658 -0.08224696
000080 b5 52 01 3e be 17 93 3e aa 54 eb bd 8c 01 32 3e
       0.12629206 0.2872905 -0.11490758 0.17383403
000090 ae e5 0a 3e 27 62 a5 3d 67 2e 19 be 2c 65 51 3d
       0.13564178 0.08075362 -0.14959107 0.051121876
0000a0 1f b3 bc bd 0e 08 a9 3d 72 8e 74 bb 4b 45 07 be
       -0.09213852 0.082534894 -0.003731635 -0.13210027
0000b0 51 41 f9 3d ea 84 9c 3d 68 4b 2b bd 0d e3 8a 3c
       0.12170661 0.07642539 -0.04181996 0.01695397
0000c0 e1 eb 6c bd 19 a9 04 3e c0 2b dd 3d 37 13 e8 3d
       -0.05784214 0.1295513 0.1079936 0.1133179
0000d0 e9 9b 48 bd 71 45 aa bc f5 4b 8a bc ae f4 37 3e
       -0.048976813 -0.020785065 -0.016881922 0.17964432
0000e0 df e3 cf 3c 70 44 d4 3d 6d 8c 21 be f6 e7 ce bc
       0.025377212 0.10364616 -0.15776224 -0.025257092
0000f0 19 13 49 bd 39 46 81 bd 82 91 b7 3d 7f d8 49 3d
       -0.04909048 -0.06312222 0.089633 0.049278732
000100 bb a6 c3 3d e2 78 f7 b9 af d7 89 3d f8 48 c4 bd
       0.09553286 -0.00047201576 0.067305915 -0.0958423
000110 a9 2a 54 3d a1 a6 27 bc 96 16 d2 3c e9 e0 80 3c
       0.051798496 -0.0102325985 0.025645535 0.015732246
000120 61 2e 77 3e d5 7d 29 be 08 57 30 3d 43 6a 88 3c
       0.24138786 -0.16551907 0.04305175 0.016652232
000130 a0 ec 69 be 97 d1 62 be 8f e1 97 bd e9 e4 1b 3e
       -0.22844172 -0.22150265 -0.07416069 0.15224041
000140 8e 87 29 bd 98 b5 af bd 46 e8 87 bd a2 8a e4 3d
       -0.04138904 -0.08579558 -0.066360995 0.111592546
000150 2d 80 0d 3c 15 f8 ea bd 18 a9 d6 3c 1d 4f 27 be
       0.0086365165 -0.11473099 0.026203677 -0.16338773
000160 31 f2 1b be e8 7e 77 3d 4c 5c 89 be 78 13 06 be
       -0.15229107 0.06042376 -0.2682823 -0.13093364
000170 08 bc d2 3d 19 04 97 3d 18 af 9a 3d 5c fd cf ba
       0.1028977 0.073738284 0.07552928 -0.0015868354
000180 85 33 8a bd c2 46 d9 3d 5e 27 b0 3d e6 55 a9 bd
       -0.06748108 0.10609199 0.08601259 -0.08268337
000190 b8 1b 8c 3d 40 39 9f bd 2e 65 87 bd f1 b9 1d be
       0.068412244 -0.077745914 -0.06611095 -0.15402962
0001a0 b8 05 52 bd 8c d4 3b 3e b4 b7 9e be d5 8c 87 bd
       -0.051274985 0.18342799 -0.3099953 -0.066186585
0001b0 d4 c1 ef 3d 34 c5 07 be 38 e6 74 3d e1 be 58 3d
       0.11706892 -0.13258821 0.059789866 0.05291641
0001c0 c1 30 b9 bd 38 48 7a bd 8e de 85 be ad 40 ed bc
       -0.09042502 -0.06110403 -0.26146358 -0.028961504
0001d0 5a 88 b7 3c 72 57 18 3d da 6f e4 bd a2 5f 93 bd
       0.022403885 0.03719277 -0.111541465 -0.07195975
0001e0 56 a0 ae bd d1 16 ae bd 83 ea 4c 3b b3 b7 68 bd
       -0.085266754 -0.08500446 0.003126771 -0.056815814
0001f0 ce 17 3a bd 1f 8e 0d 3e 72 24 40 bd f7 e3 aa bd
       -0.04543286 0.13823746 -0.046909757 -0.08344262
000200 1c 6c 60 bd 4c 6f 25 be 44 3c d2 3d 6e f7 7f 3c
       -0.0547906 -0.16155738 0.10265401 0.015622957
000210 e3 6f 46 3e a3 b0 42 be 2f 16 df bd 7c 3f 90 bc
       0.19378619 -0.19012694 -0.10892903 -0.017608397
000220 3f f0 ac 3b 3e a8 4d bc b1 6a 33 bd 9d 96 24 3e
       0.005277663 -0.012552319 -0.04380292 0.1607308
000230 ba ba b6 bd 9e 14 3f bd e8 83 7f bd 14 53 49 be
       -0.08922334 -0.04665052 -0.062381655 -0.19660598
000240 01 b6 22 3e 9e c8 c9 bd 54 67 4f 3e 89 9c 77 bd
       0.15889741 -0.09852718 0.2025426 -0.060452018
000250 2f f0 cc bd 8f 78 94 3a e8 1d 0d 3c 6f b0 1f 3e
       -0.10006749 0.0011327433 0.008613087 0.15594648
000260 28 aa 93 bd a2 e7 f5 bc 28 80 49 3c 7b e8 ce bd
       -0.07210189 -0.030017678 0.012298621 -0.10102936
000270 93 2e 95 bd a9 78 e2 bd 31 92 e6 3d 3c 22 cb bd
       -0.07284274 -0.1105817 0.112583525 -0.09918639
000280 c0 c0 66 3e c0 e6 5d 3e ec a4 04 3e d0 61 f4 3d
       0.22534466 0.21670055 0.12953538 0.11932719
000290 b9 a7 89 3e e9 89 ac 3d ce 44 06 3e 47 f2 d7 bd
       0.26885775 0.08424742 0.13112184 -0.105442576
0002a0 4d a6 4a bc 33 2a 2f 3d 30 9c 6f 3d bd 8e 04 bd
       -0.012368751 0.042764854 0.05849856 -0.03236269
0002b0 9f 49 04 be da 76 08 3e c9 6a 9c bc 81 1c 58 3d
       -0.12918709 0.13326588 -0.019093888 0.05276156
0002c0 e3 76 8d bd 5d c2 2d bc cd b9 be 3d 9b 0a 42 bd
       -0.069074415 -0.010605422 0.093127824 -0.047373395
0002d0 40 15 e7 3b 2e 4f a7 be 8c 91 b8 bd f0 54 78 3c
       0.0070520937 -0.32677597 -0.09012136 0.015156969
0002e0 61 3a 71 3d 2e bd a6 3d fd 13 11 3e 3f aa ea bc
       0.058893565 0.08141552 0.14167781 -0.028645633
0002f0 48 c1 d8 3d ea ed 11 3e 33 60 ed bd 7e be 10 bc
       0.105837405 0.14250913 -0.11590614 -0.008834479
000300 03 26 7f 3c bb eb ed bd 46 66 31 be 8f 32 d2 3c
       0.015573028 -0.11617228 -0.1732417 0.025658874
000310 f3 fe 94 bd e4 4b 4a be d5 ed 8d 3e f6 2b f1 bc
       -0.0727519 -0.19755512 0.27720514 -0.029439908
000320 e4 bc de bb f2 32 e6 bd f0 7c b9 3e f0 9d 44 be
       -0.00679742 -0.11240186 0.36228132 -0.19200873
000330 df 64 48 3e 0f dd 26 be 97 cd 38 3d 14 b8 fd bc
       0.1956973 -0.16295265 0.04511794 -0.030971564
000340 8f 11 17 3d 35 69 21 3e 87 2a 7e 3d 1a ea 4c bd
       0.03688198 0.1576279 0.062052276 -0.050027944
000350 82 2e 36 3e 08 9a 3d be ab 0e e2 3d 03 bf 6c bd
       0.17791179 -0.1851579 0.11037954 -0.05779935
000360 eb 1a 2c 3e c5 4b 19 3e e9 69 db bc 87 ee e6 3d
       0.16807143 0.1497031 -0.0267839 0.11275964
000370 7d a7 8d 3d 08 80 dd bc f1 89 0c be 32 80 57 be
       0.069167115 -0.02703859 -0.13724495 -0.21044996
000380 81 01 e0 3d 9e 52 77 bd 0c 5f cc 3d 8d 3c 37 be
       0.10937787 -0.060381524 0.09979066 -0.17894192
000390 09 25 c8 3d e4 e4 c6 3d 7e 09 bf 3e 86 84 2d 3c
       0.09772689 0.09711626 0.3731193 0.010590678
0003a0 d0 4e 81 3b 9e d9 4d 3e 34 43 2f 3e 64 fb 0c be
       0.0039461628 0.20102546 0.1711548 -0.13767773
0003b0 ea 3b 08 3d 6a 7c 06 be ad 7d 35 3d b6 bc d5 bd
       0.033260264 -0.13133398 0.044309307 -0.104363844
0003c0 f4 a6 ec 3d b3 7e 12 be 4d c5 2f 3d 1f b4 2f be
       0.11555281 -0.14306144 0.04291277 -0.17158554
0003d0 8a b9 21 bd 62 cc 3a be 04 81 e6 3d c8 01 a4 3d
       -0.039483584 -0.18242028 0.112550765 0.08008152
0003e0 92 37 76 bd 51 4a 46 3d 22 99 9f 3d 33 cf 7a be
       -0.06011159 0.048410717 0.0779288 -0.24493103
0003f0 e7 65 9e bc b8 2e bd bc 5b d7 9a 3c bc 56 51 3e
       -0.0193357 -0.023093566 0.018901518 0.20443243

shared.0.bias f4 [128]
000000 00 00 00 00 00 00 00 00 00 00 00 00 00 00 00 00
       0.0 0.0 0.0 0.0
000010 00 00 00 00 00 00 00 00 00 00 00 00 00 00 00 00
       0.0 0.0 0.0 0.0
000020 00 00 00 00 00 00 00 00 00 00 00 00 00 00 00 00
       0.0 0.0 0.0 0.0
000030 00 00 00 00 00 00 00 00 00 00 00 00 00 00 00 00
       0.0 0.0 0.0 0.0
000040 00 00 00 00 00 00 00 00 00 00 00 00 00 00 00 00
       0.0 0.0 0.0 0.0
000050 00 00 00 00 00 00 00 00 00 00 00 00 00 00 00 00
       0.0 0.0 0.0 0.0
000060 00 00 00 00 00 00 00 00 00 00 00 00 00 00 00 00
       0.0 0.0 0.0 0.0
000070 00 00 00 00 00 00 00 00 00 00 00 00 00 00 00 00
       0.0 0.0 0.0 0.0
000080 00 00 00 00 00 00 00 00 00 00 00 00 00 00 00 00
       0.0 0.0 0.0 0.0
000090 00 00 00 00 00 00 00 00 00 00 00 00 00 00 00 00
       0.0 0.0 0.0 0.0
0000a0 00 00 00 00 00 00 00 00 00 00 00 00 00 00 00 00
       0.0 0.0 0.0 0.0
0000b0 00 00 00 00 00 00 00 00 00 00 00 00 00 00 00 00
       0.0 0.0 0.0 0.0
0000c0 00 00 00 00 00 00 00 00 00 00 00 00 00 00 00 00
       0.0 0.0 0.0 0.0
0000d0 00 00 00 00 00 00 00 00 00 00 00 00 00 00 00 00
       0.0 0.0 0.0 0.0
0000e0 00 00 00 00 00 00 00 00 00 00 00 00 00 00 00 00
       0.0 0.0 0.0 0.0
0000f0 00 00 00 00 00 00 00 00 00 00 00 00 00 00 00 00
       0.0 0.0 0.0 0.0
000100 00 00 00 00 00 00 00 00 00 00 00 00 00 00 00 00
       0.0 0.0 0.0 0.0
000110 00 00 00 00 00 00 00 00 00 00 00 00 00 00 00 00
       0.0 0.0 0.0 0.0
000120 00 00 00 00 00 00 00 00 00 00 00 00 00 00 00 00
       0.0 0.0 0.0 0.0
000130 00 00 00 00 00 00 00 00 00 00 00 00 00 00 00 00
       0.0 0.0 0.0 0.0
000140 00 00 00 00 00 00 00 00 00 00 00 00 00 00 00 00
       0.0 0.0 0.0 0.0
000150 00 00 00 00 00 00 00 00 00 00 00 00 00 00 00 00
       0.0 0.0 0.0 0.0
000160 00 00 00 00 00 00 00 00 00 00 00 00 00 00 00 00
       0.0 0.0 0.0 0.0
000170 00 00 00 00 00 00 00 00 00 00 00 00 00 00 00 00
       0.0 0.0 0.0 0.0
000180 00 00 00 00 00 00 00 00 00 00 00 00 00 00 00 00
       0.0 0.0 0.0 0.0
000190 00 00 00 00 00 00 00 00 00 00 00 00 00 00 00 00
       0.0 0.0 0.0 0.0
0001a0 00 00 00 00 00 00 00 00 00 00 00 00 00 00 00 00
       0.0 0.0 0.0 0.0
0001b0 00 00 00 00 00 00 00 00 00 00 00 00 00 00 00 00
       0.0 0.0 0.0 0.0
0001c0 00 00 00 00 00 00 00 00 00 00 00 00 00 00 00 00
       0.0 0.0 0.0 0.0
0001d0 00 00 00 00 00 00 00 00 00 00 00 00 00 00 00 00
       0.0 0.0 0.0 0.0
0001e0 00 00 00 00 00 00 00 00 00 00 00 00 00 00 00 00
       0.0 0.0 0.0 0.0
0001f0 00 00 00 00 00 00 00 00 00 00 00 00 00 00 00 00
       0.0 0.0 0.0 0.0

shared.1.weight f4 [128]
000000 00 00 80 3f 00 00 80 3f 00 00 80 3f 00 00 80 3f
       1.0 1.0 1.0 1.0
000010 00 00 80 3f 00 00 80 3f 00 00 80 3f 00 00 80 3f
       1.0 1.0 1.0 1.0
000020 00 00 80 3f 00 00 80 3f 00 00 80 3f 00 00 80 3f
       1.0 1.0 1.0 1.0
000030 00 00 80 3f 00 00 80 3f 00 00 80 3f 00 00 80 3f
       1.0 1.0 1.0 1.0
000040 00 00 80 3f 00 00 80 3f 00 00 80 3f 00 00 80 3f
       1.0 1.0 1.0 1.0
000050 00 00 80 3f 00 00 80 3f 00 00 80 3f 00 00 80 3f
       1.0 1.0 1.0 1.0
000060 00 00 80 3f 00 00 80 3f 00 00 80 3f 00 00 80 3f
       1.0 1.0 1.0 1.0
000070 00 00 80 3f 00 00 80 3f 00 00 80 3f 00 00 80 3f
       1.0 1.0 1.0 1.0
000080 00 00 80 3f 00 00 80 3f 00 00 80 3f 00 00 80 3f
       1.0 1.0 1.0 1.0
000090 00 00 80 3f 00 00 80 3f 00 00 80 3f 00 00 80 3f
       1.0 1.0 1.0 1.0
0000a0 00 00 80 3f 00 00 80 3f 00 00 80 3f 00 00 80 3f
       1.0 1.0 1.0 1.0
0000b0 00 00 80 3f 00 00 80 3f 00 00 80 3f 00 00 80 3f
       1.0 1.0 1.0 1.0
0000c0 00 00 80 3f 00 00 80 3f 00 00 80 3f 00 00 80 3f
       1.0 1.0 1.0 1.0
0000d0 00 00 80 3f 00 00 80 3f 00 00 80 3f 00 00 80 3f
       1.0 1.0 1.0 1.0
0000e0 00 00 80 3f 00 00 80 3f 00 00 80 3f 00 00 80 3f
       1.0 1.0 1.0 1.0
0000f0 00 00 80 3f 00 00 80 3f 00 00 80 3f 00 00 80 3f
       1.0 1.0 1.0 1.0
000100 00 00 80 3f 00 00 80 3f 00 00 80 3f 00 00 80 3f
       1.0 1.0 1.0 1.0
000110 00 00 80 3f 00 00 80 3f 00 00 80 3f 00 00 80 3f
       1.0 1.0 1.0 1.0
000120 00 00 80 3f 00 00 80 3f 00 00 80 3f 00 00 80 3f
       1.0 1.0 1.0 1.0
000130 00 00 80 3f 00 00 80 3f 00 00 80 3f 00 00 80 3f
       1.0 1.0 1.0 1.0
000140 00 00 80 3f 00 00 80 3f 00 00 80 3f 00 00 80 3f
       1.0 1.0 1.0 1.0
000150 00 00 80 3f 00 00 80 3f 00 00 80 3f 00 00 80 3f
       1.0 1.0 1.0 1.0
000160 00 00 80 3f 00 00 80 3f 00 00 80 3f 00 00 80 3f
       1.0 1.0 1.0 1.0
000170 00 00 80 3f 00 00 80 3f 00 00 80 3f 00 00 80 3f
       1.0 1.0 1.0 1.0
000180 00 00 80 3f 00 00 80 3f 00 00 80 3f 00 00 80 3f
       1.0 1.0 1.0 1.0
000190 00 00 80 3f 00 00 80 3f 00 00 80 3f 00 00 80 3f
       1.0 1.0 1.0 1.0
0001a0 00 00 80 3f 00 00 80 3f 00 00 80 3f 00 00 80 3f
       1.0 1.0 1.0 1.0
0001b0 00 00 80 3f 00 00 80 3f 00 00 80 3f 00 00 80 3f
       1.0 1.0 1.0 1.0
0001c0 00 00 80 3f 00 00 80 3f 00 00 80 3f 00 00 80 3f
       1.0 1.0 1.0 1.0
0001d0 00 00 80 3f 00 00 80 3f 00 00 80 3f 00 00 80 3f
       1.0 1.0 1.0 1.0
0001e0 00 00 80 3f 00 00 80 3f 00 00 80 3f 00 00 80 3f
       1.0 1.0 1.0 1.0
0001f0 00 00 80 3f 00 00 80 3f 00 00 80 3f 00 00 80 3f
       1.0 1.0 1.0 1.0

shared.1.bias f4 [128]
000000 00 00 00 00 00 00 00 00 00 00 00 00 00 00 00 00
       0.0 0.0 0.0 0.0
000010 00 00 00 00 00 00 00 00 00 00 00 00 00 00 00 00
       0.0 0.0 0.0 0.0
000020 00 00 00 00 00 00 00 00 00 00 00 00 00 00 00 00
       0.0 0.0 0.0 0.0
000030 00 00 00 00 00 00 00 00 00 00 00 00 00 00 00 00
       0.0 0.0 0.0 0.0
000040 00 00 00 00 00 00 00 00 00 00 00 00 00 00 00 00
       0.0 0.0 0.0 0.0
000050 00 00 00 00 00 00 00 00 00 00 00 00 00 00 00 00
       0.0 0.0 0.0 0.0
000060 00 00 00 00 00 00 00 00 00 00 00 00 00 00 00 00
       0.0 0.0 0.0 0.0
000070 00 00 00 00 00 00 00 00 00 00 00 00 00 00 00 00
       0.0 0.0 0.0 0.0
000080 00 00 00 00 00 00 00 00 00 00 00 00 00 00 00 00
       0.0 0.0 0.0 0.0
000090 00 00 00 00 00 00 00 00 00 00 00 00 00 00 00 00
       0.0 0.0 0.0 0.0
0000a0 00 00 00 00 00 00 00 00 00 00 00 00 00 00 00 00
       0.0 0.0 0.0 0.0
0000b0 00 00 00 00 00 00 00 00 00 00 00 00 00 00 00 00
       0.0 0.0 0.0 0.0
0000c0 00 00 00 00 00 00 00 00 00 00 00 00 00 00 00 00
       0.0 0.0 0.0 0.0
0000d0 00 00 00 00 00 00 00 00 00 00 00 00 00 00 00 00
       0.0 0.0 0.0 0.0
0000e0 00 00 00 00 00 00 00 00 00 00 00 00 00 00 00 00
       0.0 0.0 0.0 0.0
0000f0 00 00 00 00 00 00 00 00 00 00 00 00 00 00 00 00
       0.0 0.0 0.0 0.0
000100 00 00 00 00 00 00 00 00 00 00 00 00 00 00 00 00
       0.0 0.0 0.0 0.0
000110 00 00 00 00 00 00 00 00 00 00 00 00 00 00 00 00
       0.0 0.0 0.0 0.0
000120 00 00 00 00 00 00 00 00 00 00 00 00 00 00 00 00
       0.0 0.0 0.0 0.0
000130 00 00 00 00 00 00 00 00 00 00 00 00 00 00 00 00
       0.0 0.0 0.0 0.0
000140 00 00 00 00 00 00 00 00 00 00 00 00 00 00 00 00
       0.0 0.0 0.0 0.0
000150 00 00 00 00 00 00 00 00 00 00 00 00 00 00 00 00
       0.0 0.0 0.0 0.0
000160 00 00 00 00 00 00 00 00 00 00 00 00 00 00 00 00
       0.0 0.0 0.0 0.0
000170 00 00 00 00 00 00 00 00 00 00 00 00 00 00 00 00
       0.0 0.0 0.0 0.0
000180 00 00 00 00 00 00 00 00 00 00 00 00 00 00 00 00
       0.0 0.0 0.0 0.0
000190 00 00 00 00 00 00 00 00 00 00 00 00 00 00 00 00
       0.0 0.0 0.0 0.0
0001a0 00 00 00 00 00 00 00 00 00 00 00 00 00 00 00 00
       0.0 0.0 0.0 0.0
0001b0 00 00 00 00 00 00 00 00 00 00 00 00 00 00 00 00
       0.0 0.0 0.0 0.0
0001c0 00 00 00 00 00 00 00 00 00 00 00 00 00 00 00 00
       0.0 0.0 0.0 0.0
0001d0 00 00 00 00 00 00 00 00 00 00 00 00 00 00 00 00
       0.0 0.0 0.0 0.0
0001e0 00 00 00 00 00 00 00 00 00 00 00 00 00 00 00 00
       0.0 0.0 0.0 0.0
0001f0 00 00 00 00 00 00 00 00 00 00 00 00 00 00 00 00
       0.0 0.0 0.0 0.0

shared.3.weight f4 [128, 128]
000000 db e9 56 bd ac da eb 3d 28 71 ea 3d ac ee 57 3d
       -0.052469116 0.11516318 0.11447364 0.05271785
000010 fc dc 00 3e a9 3e 73 bd 2c 62 81 3d c8 2d 84 3e
       0.12584299 -0.05938593 0.06317553 0.25816178
000020 94 5b 9c bc e5 28 13 3e ab bb 00 be d6 08 5a 3e
       -0.019086637 0.14371069 -0.1257159 0.21292433
000030 6b fc 59 3d 50 10 a7 3d 3e 48 4e 3e 94 bc 9d 3d
       0.05321924 0.08157408 0.20144746 0.07701984
000040 e6 46 86 be 27 64 2f 3e 61 40 ff 3d 3f 70 d8 3b
       -0.26225966 0.17128049 0.12463451 0.0066051777
000050 91 19 31 3c ca 33 e3 3d 07 75 7e bd f4 8f f7 bd
       0.010809318 0.11093862 -0.062123325 -0.12088004
000060 c8 6b 90 3c 2b 6c 51 3c f2 6b 5e 3d b0 e9 12 bc
       0.01762952 0.012782137 0.054302163 -0.008966848
000070 a9 11 10 3e ec 48 8c 3d c3 4b 56 3d 98 9d 1a 3e
       0.14069237 0.06849846 0.052318346 0.1509918
000080 0b f0 7e bc 3c 0a 44 3d 02 bf f5 bd 1e e6 73 bd
       -0.01556016 0.047861323 -0.119993225 -0.05954563
000090 42 f5 cf bd ff 4b f6 3c b2 28 ca bc b9 de b9 bd
       -0.10154201 0.030065535 -0.024677608 -0.09075684
0000a0 64 4d b5 bc da 2f a8 bd d3 e5 05 be 14 36 e6 3b
       -0.02213163 -0.08212252 -0.13075952 0.0070254896
0000b0 84 c1 bb bc 80 94 c0 bd ad bb a4 bc de 84 d2 3d
       -0.022919424 -0.09403324 -0.020109022 0.10279249
0000c0 64 1f d2 bb b9 ef e3 3d 29 01 4b 3d 3b ba a6 3d
       -0.0064124335 0.11129708 0.049561653 0.081409894
0000d0 fd 26 1f be 20 4d 1e be 9e c9 2b bd 45 6c cd 3c
       -0.15542217 -0.15459108 -0.041940324 0.025076041
0000e0 25 0a 6d 3e 8b a5 63 be 8d 11 4e bd b2 14 0d be
       0.23148401 -0.22231118 -0.050309706 -0.13777426
0000f0 95 e5 20 3d 27 08 25 3e b5 4f 59 3c b6 97 6c 3d
       0.039281446 0.16116391 0.013263633 0.05776187
000100 c4 13 c8 bd 70 2c 90 be e5 09 b6 3c d8 8d 55 be
       -0.09769395 -0.28158903 0.022221515 -0.2085489
000110 97 e9 e9 3d df b5 a5 3b 62 8c 3b bd e7 5e 7c 3e
       0.11421507 0.005057081 -0.045788176 0.24645577
000120 b3 c5 57 be 50 12 20 3e fa a6 b5 3d ce 89 34 3e
       -0.2107151 0.15631986 0.08869739 0.17630693
000130 ea 02 67 be 90 88 55 bd 67 c5 96 bd 0e 12 91 3a
       -0.22559705 -0.05213219 -0.0736187 0.0011068003
000140 ed e2 27 be dd a6 a4 3d 49 06 fd bd ed 3e 8f 3d
       -0.16395159 0.08039639 -0.123547144 0.06994424
000150 54 41 c1 bd bd 09 90 3d 6d fb 44 be 13 d2 65 3e
       -0.094362885 0.070331074 -0.19236536 0.22443418
000160 3c 7d f1 3c b6 59 12 3e f9 ee 5c 3d a9 cb bb 3d
       0.029478662 0.14292035 0.05393884 0.091697045
000170 df 4f 9c 3d 07 a8 bc bc 62 3f 66 be ae 69 e4 3d
       0.07632422 -0.02302934 -0.22485116 0.11152969
000180 1c b7 12 3e ff 99 d7 3d 51 04 4d bd 52 7b 23 3e
       0.14327663 0.10527419 -0.050052945 0.15965012
000190 94 98 1c be ea bd 88 3e c2 21 c7 3c a9 9d 1f 3e
       -0.15292579 0.26707393 0.02430809 0.15587486
0001a0 a8 28 20 3b 66 47 3f bb fb 89 a9 bc 4f 3a 33 be
       0.0024438296 -0.0029186844 -0.020695677 -0.17502712
0001b0 a4 03 bb 3d 45 fb 6b bd 58 1f 23 be f1 26 3c 3e
       0.09131554 -0.057612676 -0.15929925 0.1837423
0001c0 67 18 ad 3d 81 74 85 3e 57 5a 37 bc 83 15 30 3e
       0.0845192 0.26065448 -0.011190972 0.17195706
0001d0 5b a8 21 bd 77 51 af bd ce 50 af 3c 0b 98 5e be
       -0.039467197 -0.0856046 0.021400835 -0.21737687
0001e0 2b 19 63 3e cb d3 d5 3d 26 97 8c be a7 7f 13 bd
       0.2217757 0.10440787 -0.27459067 -0.03601041
0001f0 7c 39 c2 3d 62 81 87 3c 6c e0 8c 3d 80 48 75 3d
       0.094836205 0.016541187 0.068787426 0.059883595
000200 9c b8 63 3e 61 13 ef bd 2e c8 d9 bc be 20 ee bd
       0.22238392 -0.11673618 -0.02658471 -0.11627339
000210 86 01 0f 3e c6 7d 02 3e ea 3f 21 bd ab 58 ad bd
       0.13965425 0.12743291 -0.039367594 -0.08464178
000220 77 0c 38 bd 58 83 f6 bd 1a 05 56 3d 3f dd ef bd
       -0.044933762 -0.120367706 0.05225096 -0.11712121
000230 d1 aa a0 be 62 d7 ec 3d 73 65 b4 3d d3 a1 af bc
       -0.31380323 0.115645185 0.088084124 -0.021439468
000240 67 12 75 be 70 dc 28 be c7 54 24 be c4 71 b7 3d
       -0.23932801 -0.1649034 -0.16047965 0.08957246
000250 d3 c9 0f 3e 96 59 2d be d1 c0 08 3e 94 84 23 be
       0.14041834 -0.16928706 0.13354804 -0.15968543
000260 d1 4c f8 3d 03 18 96 3c 08 e7 95 3c a9 e6 cc 3d
       0.121240266 0.018321997 0.01829864 0.100049324
000270 b2 4e 68 be b0 fc e2 3d 31 70 84 3d a4 53 57 be
       -0.2268627 0.110833526 0.06466711 -0.21028
000280 eb 6e 25 3e bc f6 a1 bd f9 a2 23 be a9 73 25 be
       0.16155593 -0.07908389 -0.15980138 -0.16157402
000290 15 9c 7f 3b ca ae 7c 3e 01 22 60 3c 45 08 1c be
       0.0039002944 0.24676052 0.013679982 -0.1523753
0002a0 40 ed dc 3d 09 90 86 bd b1 bf cc 3c fb 1c 4c 3e
       0.10787439 -0.06570441 0.02499375 0.1993293
0002b0 21 5e 83 bd 36 93 9d 3d d1 35 85 3d f4 cc 51 be
       -0.06414438 0.07694094 0.06504405 -0.2048834
0002c0 a2 04 ff bd 32 0a 9d 3d a8 3a 14 bd 4a 72 8a 3e
       -0.124520555 0.0766796 -0.03618875 0.2704032
0002d0 3e 0a a8 3d 39 94 bf 3d 0f c3 26 be b7 4b ef bc
       0.082050785 0.09354443 -0.16285346 -0.029210908
0002e0 d6 43 8f be 60 45 19 3d 56 20 0c be c4 b9 af bc
       -0.27981442 0.037419677 -0.1368421 -0.021450885
0002f0 0e d7 08 be 48 1e ae 3d 28 57 9e 3b 8a 2a 83 3b
       -0.13363287 0.085018694 0.004832167 0.004002874
000300 82 ba 80 bc 07 c1 18 3e 3b d2 06 3d b2 36 9b bd
       -0.015713934 0.14917384 0.032915335 -0.07578792
000310 3b c6 69 bd a8 36 19 bd 86 0b c9 bd 62 aa a0 bd
       -0.057073813 -0.03740564 -0.09816651 -0.07844998
000320 c7 78 75 3d cd 61 7e 3d f8 5e 8b 3d dc ab 08 3e
       0.059929635 0.06210499 0.06805223 0.13346809
000330 25 a6 0b be 7c 5e 6a bc 86 79 05 3d d4 4f 59 bd
       -0.13637598 -0.014304753 0.032586597 -0.053054646
000340 c9 80 3d bc 67 58 95 bd a7 d6 8b 3c 05 56 10 bc
       -0.011566349 -0.07292252 0.017070128 -0.008809571
000350 94 f7 63 3c 63 bb 99 ba a7 30 08 3d 42 0f 3a be
       0.013914008 -0.0011728819 0.033249523 -0.18169883
000360 c1 28 52 3d e5 4d 7d 3e ce b5 fd bd 03 96 bd bd
       0.051308397 0.24736746 -0.12388192 -0.09257128
000370 04 af 19 bd 10 fc 4d 3d e0 c2 35 be 8f 2b 26 3e
       -0.037520424 0.050289214 -0.1775012 0.16227554
000380 d0 90 78 bb 58 35 c2 3c 4d 4b 5c be 9d 5c 57 bd
       -0.0037928112 0.023707077 -0.215131 -0.052578557
000390 de 4f 12 be ce ef 77 bd 9a ba a7 3d 89 04 1c be
       -0.1428828 -0.06053143 0.08189888 -0.15236105
0003a0 fc f2 4c be 8f db a5 3d 86 f8 c6 bd 1c b4 66 3e
       -0.20014566 0.08098518 -0.09715371 0.22529644
0003b0 a5 09 30 3d bf 79 a5 3d 6a ce ca bd 0c 1a 27 3e
       0.042977948 0.08079862 -0.099026516 0.1631853
0003c0 f2 a0 19 3e 80 19 08 3e 78 14 4b 3c 8b 88 af 3e
       0.15002802 0.13290977 0.012395017 0.34283862
0003d0 95 72 0c bd 11 98 ef 3d 29 09 2d 3c 3a 8b 9a bc
       -0.03428896 0.11698926 0.010561266 -0.018865217
0003e0 71 37 72 3d b8 bc 68 3d 8b 7e 0f bd 81 f2 4a be
       0.059134904 0.0568206 -0.03503279 -0.1981907
0003f0 1e 32 8f 3d 1c 8c 3c be d4 26 22 be 49 b2 52 3d
       0.06991981 -0.18412822 -0.15835124 0.051439557

shared.3.bias f4 [128]
000000 00 00 00 00 00 00 00 00 00 00 00 00 00 00 00 00
       0.0 0.0 0.0 0.0
000010 00 00 00 00 00 00 00 00 00 00 00 00 00 00 00 00
       0.0 0.0 0.0 0.0
000020 00 00 00 00 00 00 00 00 00 00 00 00 00 00 00 00
       0.0 0.0 0.0 0.0
000030 00 00 00 00 00 00 00 00 00 00 00 00 00 00 00 00
       0.0 0.0 0.0 0.0
000040 00 00 00 00 00 00 00 00 00 00 00 00 00 00 00 00
       0.0 0.0 0.0 0.0
000050 00 00 00 00 00 00 00 00 00 00 00 00 00 00 00 00
       0.0 0.0 0.0 0.0
000060 00 00 00 00 00 00 00 00 00 00 00 00 00 00 00 00
       0.0 0.0 0.0 0.0
000070 00 00 00 00 00 00 00 00 00 00 00 00 00 00 00 00
       0.0 0.0 0.0 0.0
000080 00 00 00 00 00 00 00 00 00 00 00 00 00 00 00 00
       0.0 0.0 0.0 0.0
000090 00 00 00 00 00 00 00 00 00 00 00 00 00 00 00 00
       0.0 0.0 0.0 0.0
0000a0 00 00 00 00 00 00 00 00 00 00 00 00 00 00 00 00
       0.0 0.0 0.0 0.0
0000b0 00 00 00 00 00 00 00 00 00 00 00 00 00 00 00 00
       0.0 0.0 0.0 0.0
0000c0 00 00 00 00 00 00 00 00 00 00 00 00 00 00 00 00
       0.0 0.0 0.0 0.0
0000d0 00 00 00 00 00 00 00 00 00 00 00 00 00 00 00 00
       0.0 0.0 0.0 0.0
0000e0 00 00 00 00 00 00 00 00 00 00 00 00 00 00 00 00
       0.0 0.0 0.0 0.0
0000f0 00 00 00 00 00 00 00 00 00 00 00 00 00 00 00 00
       0.0 0.0 0.0 0.0
000100 00 00 00 00 00 00 00 00 00 00 00 00 00 00 00 00
       0.0 0.0 0.0 0.0
000110 00 00 00 00 00 00 00 00 00 00 00 00 00 00 00 00
       0.0 0.0 0.0 0.0
000120 00 00 00 00 00 00 00 00 00 00 00 00 00 00 00 00
       0.0 0.0 0.0 0.0
000130 00 00 00 00 00 00 00 00 00 00 00 00 00 00 00 00
       0.0 0.0 0.0 0.0
000140 00 00 00 00 00 00 00 00 00 00 00 00 00 00 00 00
       0.0 0.0 0.0 0.0
000150 00 00 00 00 00 00 00 00 00 00 00 00 00 00 00 00
       0.0 0.0 0.0 0.0
000160 00 00 00 00 00 00 00 00 00 00 00 00 00 00 00 00
       0.0 0.0 0.0 0.0
000170 00 00 00 00 00 00 00 00 00 00 00 00 00 00 00 00
       0.0 0.0 0.0 0.0
000180 00 00 00 00 00 00 00 00 00 00 00 00 00 00 00 00
       0.0 0.0 0.0 0.0
000190 00 00 00 00 00 00 00 00 00 00 00 00 00 00 00 00
       0.0 0.0 0.0 0.0
0001a0 00 00 00 00 00 00 00 00 00 00 00 00 00 00 00 00
       0.0 0.0 0.0 0.0
0001b0 00 00 00 00 00 00 00 00 00 00 00 00 00 00 00 00
       0.0 0.0 0.0 0.0
0001c0 00 00 00 00 00 00 00 00 00 00 00 00 00 00 00 00
       0.0 0.0 0.0 0.0
0001d0 00 00 00 00 00 00 00 00 00 00 00 00 00 00 00 00
       0.0 0.0 0.0 0.0
0001e0 00 00 00 00 00 00 00 00 00 00 00 00 00 00 00 00
       0.0 0.0 0.0 0.0
0001f0 00 00 00 00 00 00 00 00 00 00 00 00 00 00 00 00
       0.0 0.0 0.0 0.0

shared.4.weight f4 [128]
000000 00 00 80 3f 00 00 80 3f 00 00 80 3f 00 00 80 3f
       1.0 1.0 1.0 1.0
000010 00 00 80 3f 00 00 80 3f 00 00 80 3f 00 00 80 3f
       1.0 1.0 1.0 1.0
000020 00 00 80 3f 00 00 80 3f 00 00 80 3f 00 00 80 3f
       1.0 1.0 1.0 1.0
000030 00 00 80 3f 00 00 80 3f 00 00 80 3f 00 00 80 3f
       1.0 1.0 1.0 1.0
000040 00 00 80 3f 00 00 80 3f 00 00 80 3f 00 00 80 3f
       1.0 1.0 1.0 1.0
000050 00 00 80 3f 00 00 80 3f 00 00 80 3f 00 00 80 3f
       1.0 1.0 1.0 1.0
000060 00 00 80 3f 00 00 80 3f 00 00 80 3f 00 00 80 3f
       1.0 1.0 1.0 1.0
000070 00 00 80 3f 00 00 80 3f 00 00 80 3f 00 00 80 3f
       1.0 1.0 1.0 1.0
000080 00 00 80 3f 00 00 80 3f 00 00 80 3f 00 00 80 3f
       1.0 1.0 1.0 1.0
000090 00 00 80 3f 00 00 80 3f 00 00 80 3f 00 00 80 3f
       1.0 1.0 1.0 1.0
0000a0 00 00 80 3f 00 00 80 3f 00 00 80 3f 00 00 80 3f
       1.0 1.0 1.0 1.0
0000b0 00 00 80 3f 00 00 80 3f 00 00 80 3f 00 00 80 3f
       1.0 1.0 1.0 1.0
0000c0 00 00 80 3f 00 00 80 3f 00 00 80 3f 00 00 80 3f
       1.0 1.0 1.0 1.0
0000d0 00 00 80 3f 00 00 80 3f 00 00 80 3f 00 00 80 3f
       1.0 1.0 1.0 1.0
0000e0 00 00 80 3f 00 00 80 3f 00 00 80 3f 00 00 80 3f
       1.0 1.0 1.0 1.0
0000f0 00 00 80 3f 00 00 80 3f 00 00 80 3f 00 00 80 3f
       1.0 1.0 1.0 1.0
000100 00 00 80 3f 00 00 80 3f 00 00 80 3f 00 00 80 3f
       1.0 1.0 1.0 1.0
000110 00 00 80 3f 00 00 80 3f 00 00 80 3f 00 00 80 3f
       1.0 1.0 1.0 1.0
000120 00 00 80 3f 00 00 80 3f 00 00 80 3f 00 00 80 3f
       1.0 1.0 1.0 1.0
000130 00 00 80 3f 00 00 80 3f 00 00 80 3f 00 00 80 3f
       1.0 1.0 1.0 1.0
000140 00 00 80 3f 00 00 80 3f 00 00 80 3f 00 00 80 3f
       1.0 1.0 1.0 1.0
000150 00 00 80 3f 00 00 80 3f 00 00 80 3f 00 00 80 3f
       1.0 1.0 1.0 1.0
000160 00 00 80 3f 00 00 80 3f 00 00 80 3f 00 00 80 3f
       1.0 1.0 1.0 1.0
000170 00 00 80 3f 00 00 80 3f 00 00 80 3f 00 00 80 3f
       1.0 1.0 1.0 1.0
000180 00 00 80 3f 00 00 80 3f 00 00 80 3f 00 00 80 3f
       1.0 1.0 1.0 1.0
000190 00 00 80 3f 00 00 80 3f 00 00 80 3f 00 00 80 3f
       1.0 1.0 1.0 1.0
0001a0 00 00 80 3f 00 00 80 3f 00 00 80 3f 00 00 80 3f
       1.0 1.0 1.0 1.0
0001b0 00 00 80 3f 00 00 80 3f 00 00 80 3f 00 00 80 3f
       1.0 1.0 1.0 1.0
0001c0 00 00 80 3f 00 00 80 3f 00 00 80 3f 00 00 80 3f
       1.0 1.0 1.0 1.0
0001d0 00 00 80 3f 00 00 80 3f 00 00 80 3f 00 00 80 3f
       1.0 1.0 1.0 1.0
0001e0 00 00 80 3f 00 00 80 3f 00 00 80 3f 00 00 80 3f
       1.0 1.0 1.0 1.0
0001f0 00 00 80 3f 00 00 80 3f 00 00 80 3f 00 00 80 3f
       1.0 1.0 1.0 1.0

shared.4.bias f4 [128]
000000 00 00 00 00 00 00 00 00 00 00 00 00 00 00 00 00
       0.0 0.0 0.0 0.0
000010 00 00 00 00 00 00 00 00 00 00 00 00 00 00 00 00
       0.0 0.0 0.0 0.0
000020 00 00 00 00 00 00 00 00 00 00 00 00 00 00 00 00
       0.0 0.0 0.0 0.0
000030 00 00 00 00 00 00 00 00 00 00 00 00 00 00 00 00
       0.0 0.0 0.0 0.0
000040 00 00 00 00 00 00 00 00 00 00 00 00 00 00 00 00
       0.0 0.0 0.0 0.0
000050 00 00 00 00 00 00 00 00 00 00 00 00 00 00 00 00
       0.0 0.0 0.0 0.0
000060 00 00 00 00 00 00 00 00 00 00 00 00 00 00 00 00
       0.0 0.0 0.0 0.0
000070 00 00 00 00 00 00 00 00 00 00 00 00 00 00 00 00
       0.0 0.0 0.0 0.0
000080 00 00 00 00 00 00 00 00 00 00 00 00 00 00 00 00
       0.0 0.0 0.0 0.0
000090 00 00 00 00 00 00 00 00 00 00 00 00 00 00 00 00
       0.0 0.0 0.0 0.0
0000a0 00 00 00 00 00 00 00 00 00 00 00 00 00 00 00 00
       0.0 0.0 0.0 0.0
0000b0 00 00 00 00 00 00 00 00 00 00 00 00 00 00 00 00
       0.0 0.0 0.0 0.0
0000c0 00 00 00 00 00 00 00 00 00 00 00 00 00 00 00 00
       0.0 0.0 0.0 0.0
0000d0 00 00 00 00 00 00 00 00 00 00 00 00 00 00 00 00
       0.0 0.0 0.0 0.0
0000e0 00 00 00 00 00 00 00 00 00 00 00 00 00 00 00 00
       0.0 0.0 0.0 0.0
0000f0 00 00 00 00 00 00 00 00 00 00 00 00 00 00 00 00
       0.0 0.0 0.0 0.0
000100 00 00 00 00 00 00 00 00 00 00 00 00 00 00 00 00
       0.0 0.0 0.0 0.0
000110 00 00 00 00 00 00 00 00 00 00 00 00 00 00 00 00
       0.0 0.0 0.0 0.0
000120 00 00 00 00 00 00 00 00 00 00 00 00 00 00 00 00
       0.0 0.0 0.0 0.0
000130 00 00 00 00 00 00 00 00 00 00 00 00 00 00 00 00
       0.0 0.0 0.0 0.0
000140 00 00 00 00 00 00 00 00 00 00 00 00 00 00 00 00
       0.0 0.0 0.0 0.0
000150 00 00 00 00 00 00 00 00 00 00 00 00 00 00 00 00
       0.0 0.0 0.0 0.0
000160 00 00 00 00 00 00 00 00 00 00 00 00 00 00 00 00
       0.0 0.0 0.0 0.0
000170 00 00 00 00 00 00 00 00 00 00 00 00 00 00 00 00
       0.0 0.0 0.0 0.0
000180 00 00 00 00 00 00 00 00 00 00 00 00 00 00 00 00
       0.0 0.0 0.0 0.0
000190 00 00 00 00 00 00 00 00 00 00 00 00 00 00 00 00
       0.0 0.0 0.0 0.0
0001a0 00 00 00 00 00 00 00 00 00 00 00 00 00 00 00 00
       0.0 0.0 0.0 0.0
0001b0 00 00 00 00 00 00 00 00 00 00 00 00 00 00 00 00
       0.0 0.0 0.0 0.0
0001c0 00 00 00 00 00 00 00 00 00 00 00 00 00 00 00 00
       0.0 0.0 0.0 0.0
0001d0 00 00 00 00 00 00 00 00 00 00 00 00 00 00 00 00
       0.0 0.0 0.0 0.0
0001e0 00 00 00 00 00 00 00 00 00 00 00 00 00 00 00 00
       0.0 0.0 0.0 0.0
0001f0 00 00 00 00 00 00 00 00 00 00 00 00 00 00 00 00
       0.0 0.0 0.0 0.0

stone_head.0.weight f4 [64, 128]
000000 c2 75 fe 37 1c 87 ea 37 22 74 8c 39 93 78 d1 39
       3.0333995e-05 2.7957889e-05 0.00026789407 0.0003995342
000010 86 10 09 ba 22 51 90 ba 7b 28 3b b8 4e 0d f0 b9
       -0.00052285974 -0.0011010508 -4.4621975e-05 -0.0004578628
000020 d8 85 db b8 a3 1b 80 3a 26 9d d2 b8 0f 1d dc b9
       -0.00010467664 0.0009773861 -0.000100428515 -0.0004198332
000030 33 3c 27 ba 8f 1c 86 39 6a b1 86 b8 1d 69 fa 3a
       -0.0006379515 0.0002557975 -6.422664e-05 0.0019104813
000040 e2 70 fc 3a ca be 2e b9 2e 7c 71 3a b8 a1 10 ba
       0.0019259716 -0.00016665008 0.00092119246 -0.0005517262
000050 1e 65 30 3a e4 f7 49 ba f2 98 cf 39 70 0c ba 3a
       0.0006728935 -0.000770448 0.0003959607 0.001419438
000060 33 f3 5e 3a 9b 60 e3 ba be b6 b0 b9 f8 b2 5b 3a
       0.00085048674 -0.0017347516 -0.0003370549 0.00083808554
000070 66 23 2c 3a eb 1c 4d ba 2b 99 14 ba c7 52 07 3b
       0.0006566554 -0.00078244385 -0.0005668576 0.0020648704
000080 f7 12 07 ba e4 a1 3f ba 54 f6 a0 39 6e 3e 08 ba
       -0.0005152667 -0.00073101954 0.00030701107 -0.0005197291
000090 eb a4 1c ba ce 0f a0 38 87 0f a2 38 52 85 9f 39
       -0.00059755024 7.6323384e-05 7.727654e-05 0.00030426175
0000a0 82 7f a8 ba a4 eb 88 39 45 0f 71 39 4f 70 47 39
       -0.0012855383 0.00026115507 0.0002298924 0.00019019957
0000b0 4f 5c cb 3a 5d 21 ba b6 13 f8 27 b9 9b b7 0a bb
       0.0015515181 -5.547116e-06 -0.00016018776 -0.0021166566
0000c0 29 fe be 39 5c a5 0c ba e6 d2 fc ba a6 99 70 b9
       0.00036428988 -0.00053652166 -0.0019288927 -0.00022945422
0000d0 6c c8 7a 3a 52 76 28 ba b7 46 84 39 64 4c 36 ba
       0.00095666084 -0.00064263225 0.0002522969 -0.0006954132
0000e0 9e 08 6f b9 01 4c d1 b7 38 d8 7d ba e5 03 40 ba
       -0.00022796026 -2.4950134e-05 -0.0009683403 -0.0007324799
0000f0 16 73 14 3b a9 f1 95 ba 3d ab 4c 3a d9 92 8d ba
       0.0022651604 -0.0011439818 0.0007807499 -0.001080121
000100 f0 bf dc b9 61 6c c4 b8 c0 a6 90 ba 29 30 0e ba
       -0.00042104675 -9.3661954e-05 -0.0011036023 -0.00054240465
000110 57 bf c7 ba 73 77 81 ba c2 6e 45 ba 14 fe d6 38
       -0.0015239519 -0.0009877518 -0.0007531458 0.00010251641
000120 d4 d2 5b ba 72 fb 6c 39 ee f7 9f ba 0e 9f 03 39
       -0.0008385603 0.00022600385 -0.0012204626 0.00012552386
000130 06 10 b8 ba 47 24 22 ba cc 16 59 3a 01 91 a7 ba
       -0.0014042861 -0.00061852153 0.000828129 -0.0012784303
000140 46 95 fe b9 7a f6 05 ba b1 28 90 ba 47 ab 85 39
       -0.00048557873 -0.0005110275 -0.0010998455 0.00025495348
000150 52 54 1c 3a 75 b4 88 3a c9 d3 5c b9 85 19 90 ba
       0.00059634924 0.0010429757 -0.00021059731 -0.0010993934
000160 21 0e a4 38 07 bc 24 ba 65 2f 4a ba 9e e4 50 3a
       7.822761e-05 -0.0006284122 -0.0007712751 0.0007968637
000170 4d 20 9c 3a 50 10 f9 38 7f 09 93 b9 8b be c2 ba
       0.0011911482 0.00011876284 -0.000280451 -0.0014857812
000180 62 41 2a 39 99 62 2d 39 bf 97 09 3a de e8 96 ba
       0.0001623682 0.00016535296 0.0005248747 -0.0011513492
000190 45 24 ee b8 32 80 cf ba e0 48 21 3a b2 fd 6c b8
       -0.0001135548 -0.0015831052 0.0006152522 -5.6503057e-05
0001a0 17 3b 3d ba ae 0d 99 ba d7 f5 89 3a 21 4d 3b ba
       -0.0007218583 -0.001167705 0.0010525536 -0.0007144977
0001b0 c7 05 94 39 22 07 50 3a c6 a4 b0 39 36 a2 9b 39
       0.00028233064 0.0007935633 0.00033692102 0.0002968476
0001c0 0e 1e a1 3a e0 a9 03 3a 0a 83 65 ba 1b 16 8a ba
       0.0012292282 0.0005022567 -0.0008755183 -0.0010535152
0001d0 2f 2b 74 ba d2 62 f5 3a 89 b1 51 3a 8d 0c bf 3a
       -0.0009314296 0.0018721467 0.0007999172 0.0014575884
0001e0 5a c4 9f ba b8 d8 87 3a 0b 78 6b 3a 69 44 58 39
       -0.0012189255 0.001036427 0.00089824264 0.0002062485
0001f0 38 71 e5 38 d2 e0 97 ba bc 44 ee 39 02 87 95 3a
       0.000109406596 -0.0011587387 0.0004544611 0.0011408033
000200 4e c7 be b9 7f 10 03 3a b2 57 4c 3a f0 a5 5c 3a
       -0.00036388118 0.00049997115 0.000779505 0.00084170606
000210 5d 3f 74 3a 1d 35 b8 b9 fa e7 19 3a f4 1a 71 39
       0.0009317303 -0.00035134787 0.0005871054 0.00022993592
000220 32 d7 c4 3a 4d cd 0a b7 05 f2 41 3a e7 7b 02 b6
       0.0015017746 -8.273241e-06 0.00073984294 -1.944363e-06
000230 c5 79 2a 3a a7 33 84 ba 3d ee 6c b8 f9 21 8b ba
       0.00065031304 -0.0010086194 -5.648866e-05 -0.0010614983
000240 6b 91 97 37 df d7 0a 3a 2e 86 4a b9 2b 05 10 b9
       1.8068318e-05 0.00052964495 -0.00019314207 -0.00013734835
000250 76 85 ac b8 69 19 cf b9 d9 ad 61 3a 62 e3 10 ba
       -8.226458e-05 -0.0003950105 0.0008608974 -0.0005527047
000260 ef 62 61 ba 08 67 0a 3a 17 c6 23 ba 39 24 cf b9
       -0.0008597811 0.0005279635 -0.0006247474 -0.00039509105
000270 ad fd 08 ba d9 e4 db 39 2b 86 d5 39 6a 4a b6 ba
       -0.0005225789 0.0004194144 0.0004072649 -0.0013907675
000280 d5 c0 41 3a 0e 83 43 3a 04 60 ad b9 b4 be 08 3a
       0.00073911 0.00074581883 -0.0003306867 0.0005216405
000290 a6 cd 5c 3a 9b a0 6f ba 8d 45 04 3b ae 49 09 b9
       0.0008422978 -0.00091410585 0.0020183057 -0.00013092786
0002a0 0f fa 32 ba f0 cc 5e ba 85 0b bc 3a 12 49 1f ba
       -0.0006827423 -0.0008499166 0.0014346695 -0.0006076257
0002b0 0d 10 4c ba c1 5b 4a 3a 32 0d 87 ba 93 1e 4d 39
       -0.0007784374 0.0007719361 -0.0010303615 0.00019561713
0002c0 47 b6 46 3a 3d 46 c6 b9 fe e8 97 b9 ab c6 a9 b8
       0.0007580262 -0.00037817835 -0.00028974557 -8.095553e-05
0002d0 82 d8 2e 3a 73 09 59 3a 5f 1f 80 3a 87 66 ef ba
       0.00066698354 0.0008279301 0.0009774974 -0.0018264808
0002e0 c1 36 d3 39 3d 0b 61 ba 92 e3 08 ba 37 73 03 ba
       0.0004028585 -0.00085847435 -0.0005221899 -0.0005014422
0002f0 c8 81 8c 3a b7 a7 8b 3a b3 8b c2 39 3c 56 71 b8
       0.001071983 0.0010654841 0.00037106648 -5.753919e-05
000300 be 57 b8 39 5c 02 40 ba 55 13 54 ba 39 a5 1d 3a
       0.00035160588 -0.00073245703 -0.0008090039 0.0006013695
000310 6e 9c 7a b8 d5 e3 8f b9 01 52 e5 3a be 23 8d ba
       -5.975033e-05 -0.00027444834 0.0017495753 -0.0010768098
000320 a9 05 e9 39 16 47 93 ba f8 25 b7 ba db d5 60 3a
       0.0004444544 -0.0011236395 -0.0013973108 0.0008576789
000330 72 62 02 ba 4b e9 e2 ba bd 92 a9 ba 10 d2 d5 b9
       -0.0004973776 -0.0017311958 -0.0012937408 -0.00040783035
000340 4a cc 78 b9 78 ca 24 3a 0e 43 da 39 83 61 22 b9
       -0.00023727227 0.0006286274 0.0004163016 -0.0001548585
000350 6c d0 76 b9 67 ec 79 3a b0 5d ad ba 5e 12 49 b8
       -0.00023538031 0.0009533823 -0.0013226774 -4.793924e-05
000360 cd bc 95 3a 04 00 45 ba 5e 4f 0f 3a 9e b2 c6 ba
       0.0011424065 -0.0007514956 0.0005466844 -0.0015159433
000370 92 c9 21 ba d5 9f 42 39 a2 96 8a 3a 29 e8 0b bb
       -0.0006171699 0.00018560824 0.0010573457 -0.0021348095
000380 04 ee 4d b9 20 b5 1c 3a 4b 4d 85 3a 6a 2e 15 b7
       -0.00019638991 0.00059779175 0.001017013 -8.891899e-06
000390 84 34 8a ba 0f a9 de ba d5 cb f9 b9 94 4f bd 3a
       -0.0010544215 -0.0016987639 -0.00047644848 0.0014443272
0003a0 41 d2 65 ba 9a a1 23 3a 69 44 9c ba d8 4e 58 ba
       -0.0008766987 0.0006242037 -0.0011922243 -0.0008251495
0003b0 04 68 b8 3a 69 49 70 3a ea 8b 72 b9 0e 0f 51 b9
       0.0014069085 0.00091662124 -0.0002313104 -0.00019937402
0003c0 d9 ff f7 3a 79 7f 02 bb 42 b0 8b 3a d2 b0 85 3a
       0.0018920853 -0.0019912405 0.0010657387 0.0010199791
0003d0 a9 89 16 3b ae 5c 8e 3a 46 9e df b9 72 23 27 37
       0.0022970235 0.0010861361 -0.00042651797 9.962228e-06
0003e0 38 42 a2 3a 70 c4 a2 39 06 ea 5b 39 71 54 18 3a
       0.0012379354 0.00031045405 0.00020972648 0.00058109226
0003f0 39 8f 29 b9 9a f8 93 ba d3 bc f7 38 4a a4 40 b9
       -0.0001617045 -0.0011289299 0.00011813049 -0.0001837175

stone_head.0.bias f4 [64]
000000 00 00 00 00 00 00 00 00 00 00 00 00 00 00 00 00
       0.0 0.0 0.0 0.0
000010 00 00 00 00 00 00 00 00 00 00 00 00 00 00 00 00
       0.0 0.0 0.0 0.0
000020 00 00 00 00 00 00 00 00 00 00 00 00 00 00 00 00
       0.0 0.0 0.0 0.0
000030 00 00 00 00 00 00 00 00 00 00 00 00 00 00 00 00
       0.0 0.0 0.0 0.0
000040 00 00 00 00 00 00 00 00 00 00 00 00 00 00 00 00
       0.0 0.0 0.0 0.0
000050 00 00 00 00 00 00 00 00 00 00 00 00 00 00 00 00
       0.0 0.0 0.0 0.0
000060 00 00 00 00 00 00 00 00 00 00 00 00 00 00 00 00
       0.0 0.0 0.0 0.0
000070 00 00 00 00 00 00 00 00 00 00 00 00 00 00 00 00
       0.0 0.0 0.0 0.0
000080 00 00 00 00 00 00 00 00 00 00 00 00 00 00 00 00
       0.0 0.0 0.0 0.0
000090 00 00 00 00 00 00 00 00 00 00 00 00 00 00 00 00
       0.0 0.0 0.0 0.0
0000a0 00 00 00 00 00 00 00 00 00 00 00 00 00 00 00 00
       0.0 0.0 0.0 0.0
0000b0 00 00 00 00 00 00 00 00 00 00 00 00 00 00 00 00
       0.0 0.0 0.0 0.0
0000c0 00 00 00 00 00 00 00 00 00 00 00 00 00 00 00 00
       0.0 0.0 0.0 0.0
0000d0 00 00 00 00 00 00 00 00 00 00 00 00 00 00 00 00
       0.0 0.0 0.0 0.0
0000e0 00 00 00 00 00 00 00 00 00 00 00 00 00 00 00 00
       0.0 0.0 0.0 0.0
0000f0 00 00 00 00 00 00 00 00 00 00 00 00 00 00 00 00
       0.0 0.0 0.0 0.0

stone_head.2.weight f4 [3, 64]
000000 52 7f a4 ba 4f d4 1c 3b 15 2d c9 3a 17 da 04 38
       -0.0012550151 0.0023930257 0.0015348519 3.1674364e-05
000010 50 f7 ef 3a 49 1d 9a 3a 6c 02 d5 39 27 69 a1 3a
       0.0018307958 0.0011757995 0.0004062833 0.0012314663
000020 02 c7 ae ba 69 0a 01 3b 05 9c 92 3a 09 46 7a ba
       -0.0013334455 0.0019690043 0.0011185413 -0.0009547179
000030 02 d0 42 39 5e cb 71 b9 aa 76 d6 37 b7 a5 fc 39
       0.0001857877 -0.00023059311 2.5566045e-05 0.00048188653
000040 30 88 08 bb 1e dd 4c ba f4 e4 27 ba 3a 57 12 bb
       -0.0020833127 -0.00078149315 -0.0006404661 -0.0022329823
000050 d3 f3 09 bb 2e 2e de ba c4 9a c5 3a 2f ea eb b8
       -0.0021049872 -0.0016951018 0.0015076031 -0.00011249293
000060 a7 f8 06 ba ea 57 a3 3a a0 c0 16 bb a0 a2 e7 3a
       -0.00051487464 0.0012462114 -0.0023002997 0.0017672367
000070 81 0c f9 b9 fb 01 d5 3a 90 13 81 ba 90 96 21 ba
       -0.00047502297 0.00162512 -0.0009847749 -0.0006164098
000080 7e 5e e5 3a 9e ea af b7 e5 bd e0 3a ba d5 93 ba
       0.0017499474 -2.0970878e-05 0.0017146437 -0.0011278905
000090 80 94 87 b9 d3 fc b2 3a 09 39 c0 b8 32 84 23 39
       -0.00025859848 0.001365567 -9.165897e-05 0.00015594138
0000a0 a2 57 bd b9 cc 36 ce ba d5 0d d8 b9 8f cb 4e b9
       -0.0003611418 -0.0015732883 -0.00041209036 -0.00019721522
0000b0 bc 35 9e b9 7b 5e 0b ba 46 7f 1e bb f1 db 9b 3a
       -0.00030176144 -0.0005316508 -0.0024184748 0.0011891109
0000c0 97 53 ce ba a0 ff 22 bb b9 b9 44 ba c3 69 0a 3a
       -0.0015741464 -0.0024871603 -0.00075044815 0.0005280042
0000d0 00 f0 96 3a 59 b9 4e 3a a6 d7 ab ba 2b d1 28 3a
       0.0011515617 0.00078858953 -0.0013110533 0.000643986
0000e0 ee a2 ad 3a dd 94 c5 3a b7 7f b5 39 92 62 f6 ba
       0.0013247409 0.0015074272 0.00034618165 -0.0018797687
0000f0 70 c5 13 3a 26 13 b9 39 73 c5 90 37 10 4f 55 b7
       0.00056370255 0.00035300216 1.7258082e-05 -1.27141975e-05
000100 33 81 73 ba 64 79 4b ba 14 48 ed b9 ff 9f 22 3a
       -0.00092889665 -0.0007761924 -0.00045257865 0.0006203651
000110 01 d9 35 bb 5d a8 05 3a cf 96 91 3a af 38 44 b9
       -0.0027747753 0.00050986354 0.0011107567 -0.00018713133
000120 30 1e b5 ba e2 aa 68 39 7d 1a 7e b9 ea d3 eb ba
       -0.0013818201 0.00022188903 -0.00024233195 -0.0017992232
000130 e7 d1 53 ba 97 45 d7 ba e4 a9 4d 3a f0 4f 3a 39
       -0.0008080289 -0.0016423938 0.0007845445 0.00017768121
000140 3c 55 2f ba a5 48 b8 39 f6 cc 80 3a 3c b5 80 3a
       -0.0006688421 0.0003514934 0.0009826708 0.0009819637
000150 a2 6c 00 3b fd 56 04 3b 3c 72 30 3b 8d db 1b 38
       0.0019596 0.002019345 0.0026923558 3.7159352e-05
000160 36 77 a3 ba b3 a6 7f 3a a1 3c 38 3a 6f 99 91 3a
       -0.0012471441 0.0009752318 0.00070280774 0.0011108349
000170 10 e3 5d 37 61 db eb 3a 6f 13 59 3a 32 48 02 39
       1.3225494e-05 0.0017994457 0.0008280789 0.00012424661
000180 1d c4 4c b9 9b ca dd b9 49 7b 2c ba e6 bc 3d b9
       -0.00019528014 -0.00042303358 -0.000657965 -0.00018094815
000190 a4 4a af ba 2e 74 c2 39 e9 8d e7 3a 30 b9 12 3a
       -0.0013373685 0.00037089124 0.0017666194 0.0005597053
0001a0 d8 11 01 3b b5 5b c8 b8 6a a9 f2 39 bb af 29 3b
       0.0019694474 -9.553825e-05 0.0004628406 0.0025892097
0001b0 fd c8 c3 3a e8 d6 0f bb ae d2 9c 39 67 29 0c 3a
       0.0014937219 -0.0021948162 0.00029911607 0.00053467456
0001c0 0e 04 bd 3a 23 f2 1a ba 97 14 fa b9 f5 2d 55 ba
       0.0014420764 -0.0005910715 -0.00047699056 -0.00081321533
0001d0 b3 63 55 ba a2 c1 93 ba 64 15 85 ba 69 00 8b 3a
       -0.00081401615 -0.0011272917 -0.001015347 0.0010604981
0001e0 9c bc 2c 3b fd f5 f1 3a 2f 9f 0b 39 32 e3 ed 3a
       0.0026357537 0.0018460151 0.00013315374 0.0018149375
0001f0 26 98 1b 3b f2 fa 4a 39 62 6e b6 3a 5c b4 55 3a
       0.002374181 0.00019357706 0.0013918395 0.0008152181
000200 b5 8c 5b 39 7c 80 68 3b c6 56 dd 39 bb 2e 8b 39
       0.00020937885 0.0035476973 0.00042217056 0.00026546963
000210 a6 ca 11 ba b2 5b 08 3a 1d 40 a2 3a 03 83 ec b9
       -0.0005561508 0.0005201652 0.0012378726 -0.0004511104
000220 4e 88 ca ba 0c 08 83 b9 72 f9 11 39 13 2b 31 ba
       -0.0015451999 -0.00024992262 0.00013921203 -0.0006758433
000230 dd 75 88 bb c7 c1 9e 3a f2 05 fb b9 10 0e 05 bb
       -0.004164441 0.0012112194 -0.0004787888 -0.0020302571
000240 aa 0f 89 ba 2c 43 6f b9 a4 42 cc 3a 49 79 22 bb
       -0.0010456939 -0.0002281784 0.0015583825 -0.002479153
000250 99 93 97 3a 57 e6 f7 b9 cd 43 9f b9 ec 84 59 ba
       0.0011564373 -0.00047283128 -0.0003037736 -0.00082977
000260 c9 ef 18 3b e9 91 8f 3a 02 4b 71 3a 90 c7 83 ba
       0.0023336282 0.0010953519 0.00092045974 -0.0010053981
000270 42 0a 13 3b dc df 6d 3a 65 51 cf ba 7b 68 a3 b9
       0.0022436534 0.000907419 -0.0015817104 -0.00031167627
000280 a2 a1 9f b9 43 f6 f2 39 48 12 00 bb b8 8b 53 38
       -0.0003044727 0.00046341316 -0.0019542146 5.0436443e-05
000290 57 27 26 3a 07 11 9b 3a 61 8e 58 ba 0f 01 6f ba
       0.00063382596 0.0011830636 -0.0008260962 -0.0009117284
0002a0 72 67 2a 3a 3e e6 ee 38 bd bb ec b9 84 09 0f 3a
       0.00065004 0.0001139161 -0.00045153304 0.0005456435
0002b0 13 d9 20 b9 24 5b a9 ba 48 94 94 38 45 84 61 ba
       -0.00015339656 -0.0012920839 7.0848095e-05 -0.00086027785
0002c0 37 31 82 b9 44 32 08 3a 9c 88 f0 38 26 2c 7c 3a
       -0.000248322 0.00051954784 0.00011469537 0.0009619616
0002d0 b1 8f 9e ba 22 5e de ba 6b cb ce 3a 47 b5 a0 3a
       -0.0012097267 -0.001696531 0.0015777176 0.0012261056
0002e0 d4 e4 6e ba 69 c6 b2 ba 42 9e dd ba 5d b5 86 38
       -0.00091130775 -0.0013639453 -0.0016908126 6.4233995e-05
0002f0 35 3e 63 ba a8 75 15 3a b4 e6 65 3a bb 67 b3 ba
       -0.00086686324 0.0005701431 0.0008770034 -0.001368753

stone_head.2.bias f4 [3]
000000 00 00 00 00 00 00 00 00 00 00 00 00
       0.0 0.0 0.0
